results/autoencoder/checkpoints/best_model.pth (torch, 191330 bytes, 9 tensors)

encoder.0.weight f4 [32, 1, 3, 3]
0.23565933 0.25791672 -0.0965295 0.28719175 -0.09132118 0.04910488 -0.18097265 0.17756821
0.2758831 -0.2393005 0.29758862 0.069622055 0.25315255 0.052494153 0.17070848 -0.04108772
0.26457426 0.0565804 -0.15637589 0.08574012 -0.15665652 -0.03808129 -0.13550036 0.22374383
-0.26433355 -0.15424198 -0.096860014 -0.21590933 0.017087862 -0.3422 0.29672635 -0.2860775
0.2557782 0.04957337 -0.11375544 0.20328486 0.06555497 0.28297308 0.050065313 -0.09122462
0.10364544 -0.07645849 0.15397018 0.31150562 0.20639081 -0.14572418 0.19399877 0.060449015
0.16927835 -0.20316836 -0.3299695 -0.12878685 -0.2556743 0.274493 0.100747176 0.14321494
0.11074704 -0.0010933755 0.26618353 -0.23096727 0.025801197 -0.22195883 0.108379856 -0.11156933
0.10157028 -0.07630543 0.27977753 -0.19369319 -0.20363006 -0.1957146 0.30409944 0.11441647
0.31265473 -0.28620633 -0.33948356 -0.27145204 -0.23548783 0.1285086 0.11545701 0.2726784
-0.17627019 -0.22953199 0.17675138 -0.1354592 0.20127064 -0.080704235 0.19123098 -0.26213685
-0.17079467 0.100864895 0.05665964 -0.10330187 0.17959082 0.21374884 -0.26038584 -0.19768615
0.29298887 -0.13084787 -0.13787587 -0.32253155 -0.19089007 0.08326789 -0.043997727 -0.241962
0.007818898 -0.22769384 -0.2827989 -0.18355422 -0.30200124 -0.22247845 0.32756725 0.054497458
0.094178006 -0.3232398 -0.23077552 -0.12202526 0.042242493 -0.29330713 -0.14362435 -0.1995562
0.0009237528 -0.124034405 -0.023098588 -0.22587657 -0.22879839 -0.19446728 -0.13431273 -0.2767867
0.2706421 -0.08570945 0.27465042 0.095281675 -0.30312705 0.2167281 -0.10291468 -0.13426992
-0.27716163 -0.33177245 0.08374668 -0.08530339 0.11744247 -0.277071 0.23228014 -0.24771687
-0.044802997 0.08212224 0.1838373 0.28144756 0.31577045 -0.25191176 0.09622814 -0.1308872
-0.024892554 -0.26720527 0.2851447 -0.2622084 0.15971752 0.09874618 0.09018658 -0.19831704
0.28423893 0.055031106 0.03523327 -0.30452135 0.13671985 -0.053641763 -0.15893628 0.28465483
0.06838834 -0.19149756 -0.17068759 -0.020478837 0.18237501 -0.08843528 -0.19529004 -0.11886183
-0.25276178 0.11396593 0.25382918 -0.31783178 0.086150475 0.18120839 0.069127984 -0.10980641
0.18312094 0.18396096 0.13342293 -0.049586628 -0.07962986 0.037645254 -0.057352223 -0.099176615
0.21739084 0.292415 -0.032037057 -0.07328079 0.0074202735 -0.018452039 0.06878371 0.08201225
-0.31386992 -0.1344855 0.2693496 0.11840648 -0.028264286 -0.21266007 -0.21551318 -0.3124479
-0.12223936 0.099335656 0.1980463 0.14008927 -0.30767745 -0.21468349 -0.066392735 0.30924106
0.061627015 -0.07443736 0.15546653 -0.12425008 -0.2137377 0.2594579 -0.1496424 -0.066773094
-0.327763 0.20585397 0.23521951 0.10308306 -0.25091767 -0.34776062 -0.28967252 0.23159812
0.14168036 0.26241663 0.18209061 0.092378244 0.0053353165 -0.24662513 -0.27770242 -0.3033106
0.14335357 -0.15624952 -0.059005503 -0.20350358 -0.071180716 -0.24577302 -0.23021284 0.10146451
-0.110212624 0.1967291 -0.11866324 -0.25730821 -0.07407281 -0.17676109 -0.1168535 -0.33266926
00000000: ae50 713e a90d 843e 42b1 c5bd cc0a 933e
00000010: 9906 bbbd 3322 493d e550 39be 71d4 353e
00000020: 8d40 8d3e 310b 75be 895d 983e 0296 8e3d
00000030: 369d 813e 1c04 573d 34ce 2e3e 994b 28bd
00000040: 4776 873e d9c0 673d 0021 20be 8498 af3d
00000050: 916a 20be 20fb 1bbd 9bc0 0abe 1a1d 653e
00000060: ba56 87be 9cf1 1dbe 8b5e c6bd 5617 5dbe
00000070: d8fb 8b3c d734 afbe 84ec 973e c078 92be
00000080: 5cf5 823e 720d 4b3d 9df8 e8bd e829 503e
00000090: af41 863d d9e1 903e 4911 4d3d f9d3 babd
000000a0: 0f44 d43d 4596 9cbd 5caa 1d3e aa7d 9f3e
000000b0: 1d58 533e b838 15be 9da7 463e 6399 773d
000000c0: 4e57 2d3e 5e0b 50be c3f1 a8be b3e0 03be
000000d0: bee7 82be 598a 8c3e 8954 ce3d f0a6 123e
000000e0: 58cf e23d 984f 8fba 3549 883e af82 6cbe
000000f0: 085d d33c 2d49 63be 42f6 dd3d 767e e4bd
00000100: 1404 d03d 0546 9cbd 003f 8f3e 8257 46be
00000110: 6684 50be 6869 48be ecb2 9b3e 2f53 ea3d
00000120: 4814 a03e a389 92be cad0 adbe c3fb 8abe
00000130: b923 71be c297 033e ba74 ec3d 819c 8b3e
00000140: 2c80 34be 6f0a 6bbe 50fe 343e d1b5 0abe
00000150: e419 4e3e 4348 a5bd 0ed2 433e cd36 86be
00000160: cce4 2ebe 4192 ce3d f013 683d ee8f d3bd
00000170: a8e6 373e fae0 5a3e 4b51 85be 3d6e 4abe
00000180: a302 963e fcfc 05be 552f 0dbe db22 a5be
00000190: b078 43be 5b88 aa3d f636 34bd e3c4 77be
000001a0: d61a 003c 9328 69be 04cb 90be a3f5 3bbe
000001b0: e89f 9abe 64d1 63be e5b6 a73e ba38 5f3d
000001c0: 66e0 c03d b07f a5be 6b50 6cbe 61e8 f9bd
000001d0: 7706 2d3d 5a2c 96be 4312 13be 7658 4cbe
000001e0: 0028 723a c005 febd 4039 bdbc 304c 67be
000001f0: 204a 6abe 6e22 47be 4789 09be fdb6 8dbe
00000200: 9a91 8a3e 7088 afbd fb9e 8c3e 0a23 c33d
00000210: 7833 9bbe f9ed 5d3e efc4 d2bd 0e7e 09be
00000220: 21e8 8dbe 14de a9be 6183 ab3d 8bb3 aebd
00000230: ad85 f03d 40dc 8dbe d8da 6d3e 7ea9 7dbe
00000240: 5983 37bd b42f a83d d83f 3c3e e519 903e
00000250: aaac a13e 94fa 80be 4213 c53d 4b07 06be
00000260: 78eb cbbc 21cf 88be 7cfe 913e 2e40 86be
00000270: fd8c 233e 703b ca3d beb3 b83d 9f13 4bbe
00000280: c487 913e 4c68 613d c350 103d 39ea 9bbe
00000290: 4a00 0c3e 77b7 5bbd 31c0 22be 47be 913e
000002a0: 300f 8c3d f017 44be bac8 2ebe 3cc3 a7bc
000002b0: 84c0 3a3e 8e1d b5bd 1dfa 47be d56d f3bd
000002c0: fe69 81be f866 e93d e6f5 813e d9ba a2be
000002d0: a96f b03d b18e 393e f992 8d3d 2fe2 e0bd
000002e0: 0e84 3b3e 4360 3c3e 05a0 083e 591b 4bbd
000002f0: fb14 a3bd e931 1a3d 2aea 6abd 1c1d cbbd
00000300: b49b 5e3e 6bb7 953e 4a39 03bd 3d14 96bd
00000310: c425 f33b bb28 97bc 79de 8c3d 0af6 a73d
00000320: 8fb3 a0be 91b6 09be 31e8 893e 197f f23d
00000330: 818a e7bc 90c3 59be 7daf 5cbe 2cf9 9fbe
00000340: a158 fabd 7e70 cb3d a6cc 4a3e 9073 0f3e
00000350: e687 9dbe fdd5 5bbe eaf8 87bd d854 9e3e
00000360: 9c6c 7c3d 9d72 98bd 9e32 1f3e d376 febd
00000370: 0ede 5abe aad7 843e db3b 19be 55c0 88bd
00000380: 8dd0 a7be 62cb 523e 62dd 703e 361d d33d
00000390: 4878 80be ae0d b2be f54f 94be 0f28 6d3e
000003a0: a814 113e 795b 863e f675 3a3e ce30 bd3d
000003b0: e1d3 ae3b 4c8b 7cbe 032f 8ebe 874b 9bbe
000003c0: 47cb 123e e0ff 1fbe c1af 71bd 3e63 50be
000003d0: 32c7 91bd ecab 7bbe eabc 6bbe a0cc cf3d
000003e0: 28b7 e1bd 5a73 493e b605 f3bd e7bd 83be
000003f0: 7cb3 97bd dc00 35be e350 efbd a053 aabe

encoder.0.bias f4 [32]
0.2967463 -0.036283173 -0.032906696 -0.13668789 -0.28881934 -0.3228043 0.1320259 -0.18039411
-0.21868621 -0.017700793 -0.11136222 -0.10784026 0.017799783 -0.07070415 -0.10860209 -0.17488351
-0.26201224 0.2881974 -0.13547729 0.09561209 -0.105895475 0.042277765 0.3225457 0.16570805
-0.27213633 0.14920816 0.33364502 0.09745179 0.24030726 0.337066 -0.042152103 0.08164893
00000000: 22ef 973e aa9d 14bd 2cc9 06bd e9f7 0bbe
00000010: 21e0 93be 9b46 a5be cc31 073e 3cb9 38be
00000020: 47ef 5fbe 4101 91bc e011 e4bd 5bdb dcbd
00000030: dad0 913c 56cd 90bd c66a debd aa14 33be
00000040: 7826 86be 9c8e 933e 8fba 0abe 45d0 c33d
00000050: badf d8bd 732b 2d3d b624 a53e 5faf 293e
00000060: 7455 8bbe 06ca 183e 85d3 aa3e ce94 c73d
00000070: 1b13 763e ea93 ac3e afa7 2cbd 8e37 a73d

encoder.3.weight f4 [64, 32, 3, 3]
-0.023158243 0.002303673 0.051332578 0.04642843 -0.024002088 -0.03921099 -0.02941228 -0.0503029
-0.041362897 0.0037033379 0.051384244 0.0086583225 -0.030398052 -0.03958758 0.025967455 -0.03716741
-0.009256915 0.020838572 -0.016931886 -0.00026375914 -0.0060069934 -0.0013330765 -0.018520426 -0.047812894
-0.034157254 -0.018464264 0.06381512 -0.012827884 -0.023618843 0.027389048 0.029468272 0.045954846
0.05589307 0.03388328 -0.055592064 0.00029884663 0.04948196 0.00090904406 -0.036530674 0.06331324
-0.023099482 -0.041166972 -0.0545134 -0.006086148 0.012483196 0.01304393 0.011652515 -0.044688407
-0.055029836 0.0010376413 0.053730343 0.033995416 -0.034308482 -0.0076490417 -0.026035031 -0.013495403
0.019378955 0.050441444 0.06408544 -0.044437952 0.052462626 -0.03195563 0.028166238 0.06933029
0.016237246 0.07112243 -0.03657536 -0.010689462 0.049196973 -0.0022167917 -0.0015132145 -0.013669852
0.055014778 0.04176607 0.03162699 -0.021577416 -0.037031773 0.01806488 0.027333193 -0.016688567
-0.009791402 0.061639614 0.025686482 0.01671619 0.0073590246 -0.032012418 -0.04044317 -0.0071520656
-0.010621676 0.032666594 0.0077797235 0.0029581166 0.08367115 0.04498452 0.06697443 -0.006932048
-0.0013918596 0.043334786 -0.019580008 -0.03851988 -0.0028460855 -0.021552656 -0.04417402 0.034952227
0.047385752 0.009559102 -0.010259723 -0.054581158 -0.018176688 0.021048775 0.03481637 0.0025521598
-0.011034974 0.045050018 -0.033673808 0.054760188 -0.007788492 0.00090187934 -0.011644626 0.0071440735
-0.017807212 0.042846367 -0.0015318975 0.045997266 0.056655783 -0.028708003 -0.02025775 0.05954601
0.032011498 -0.02426855 0.008874012 -0.07014535 -0.02829263 0.02312096 0.004810285 0.013276058
-0.015503902 0.05509569 0.008471479 -0.034754317 -0.0035979485 0.014227018 0.020825142 -0.041665345
0.044557497 -0.009641742 -0.04216217 -0.012681593 0.07117504 0.048258875 0.059701517 0.030915285
0.03345281 0.008682622 -0.017772248 0.04029931 -0.016790861 -0.02798006 -0.008475703 0.023982069
0.040417172 -0.014272952 -0.02078038 0.02122065 -0.031219382 -0.022841197 0.043206476 -0.005747796
0.06844482 0.0706647 0.02514212 0.03971201 0.0350924 0.022469284 0.016728612 0.022484759
0.044398524 0.07540413 0.005560707 -0.0029110387 0.00032309932 -0.020828437 0.0063177976 0.05735134
0.051944263 0.022241183 -0.039231695 -0.036753703 -0.022923337 0.010063766 0.02446238 -0.043403614
0.035297543 -0.031181725 -0.02909444 -0.03642626 0.059179883 -0.052884713 0.06125501 0.01615061
0.01133034 0.05396842 0.012952091 0.056284055 0.059784308 -0.03315729 0.041655727 0.025375567
0.02847446 0.024925204 0.028593173 -0.013446024 0.008208137 0.07071152 0.05574809 0.013831015
-0.05374515 0.0056069545 -0.037780933 0.051168185 -0.032506213 -0.0018645908 -0.010970755 0.013223623
0.059468295 0.023996316 0.049336623 0.055073872 0.06469433 -0.005281125 -0.0033298442 0.040468745
-0.006540138 0.033447538 0.0013124973 -0.02185158 0.044434063 0.027622987 0.04687197 0.07994684
0.059276156 0.075979315 0.02420257 -0.054830153 -0.031900473 -0.016812567 -0.05279818 -0.016786456
-0.035614934 -0.045811076 -0.01883202 -0.038366646 -0.021918029 0.038744543 0.067124106 -0.006068457
00000000: 5bb6 bdbc 38f9 163b 1c42 523d bd2b 3e3d
00000010: 07a0 c4bc b49b 20bd 06f2 f0bc 6a0a 4ebd
00000020: 246c 29bd b3b3 723b 4978 523d a3db 0d3c
00000030: 5605 f9bc 9626 22bd b3b9 d43c db3c 18bd
00000040: 51aa 17bc a7b5 aa3c bdb4 8abc 2749 8ab9
00000050: 50d6 c4bb a0ba aeba 26b8 97bc 74d7 43bd
00000060: 7ae8 0bbd 5e42 97bc 80b1 823d 0c2c 52bc
00000070: 4e7c c1bc ff5e e03c 7267 f13c 263b 3c3d
00000080: 22f0 643d 32c9 0a3d 81b4 63bd 84ae 9c39
00000090: 98ad 4a3d ea4c 6e3a 30a1 15bd 5faa 813d
000000a0: 203b bdbc b39e 28bd 7149 5fbd 4f6e c7bb
000000b0: 5286 4c3c 35b6 553c 31ea 3e3c 310b 37bd
000000c0: f766 61bd 7701 883a 5914 5c3d c73e 0b3d
000000d0: 0d87 0cbd d0a4 fabb 6b47 d5bc d31b 5dbc
000000e0: 9dc0 9e3c b09b 4e3d 3a3f 833d 9204 36bd
000000f0: 0de3 563d e8e3 02bd e2bc e63c 0afd 8d3d
00000100: f903 853c a3a8 913d 0bd0 15bd da22 2fbc
00000110: c482 493d 9847 11bb 0e57 c6ba 84f7 5fbc
00000120: 2d57 613d e612 2b3d 4d8b 013d 1fc3 b0bc
00000130: a1ae 17bd cdfc 933c dce9 df3c 76b6 88bc
00000140: 1e6c 20bc d279 7c3d 756c d23c 64f0 883c
00000150: f923 f13b 741f 03bd bda7 25bd e05b eabb
00000160: 8a06 2ebc 68cd 053d 0ded fe3b f6dc 413b
00000170: c85b ab3d b041 383d e429 893d 3c26 e3bb
00000180: 0f6f b6ba d17f 313d 4166 a0bc 06c7 1dbd
00000190: 6485 3abb 328f b0bc d1ef 34bd 112a 0f3d
000001a0: 9017 423d c89d 1c3c 6618 28bc 7e90 5fbd
000001b0: 47e7 94bc 7b6e ac3c 9c9b 0e3d 2342 273b
000001c0: 09cc 34bc 5e86 383d 8ced 09bd 384c 603d
000001d0: 9b36 ffbb 196c 6c3a 1ac9 3ebc d518 ea3b
000001e0: 6ee0 91bc ac7f 2f3d f3c9 c8ba a167 3c3d
000001f0: e50f 683d 0c2d ebbc 95f3 a5bc 84e6 733d
00000200: 7d1e 033d d7ce c6bc 4e64 113c 5ea8 8fbd
00000210: f2c5 e7bc 2b68 bd3c 989f 9d3b d383 593c
00000220: 1404 7ebc 05ac 613d f5cb 0a3c 8b5a 0ebd
00000230: 8fcb 6bbb 7018 693c 7d99 aa3c 48a9 2abd
00000240: ec81 363d 66f8 1dbc 3db2 2cbd 75c6 4fbc
00000250: 38c4 913d 19ab 453d 9489 743d 0d42 fd3c
00000260: d005 093d 8e41 0e3c 1b97 91bc e410 253d
00000270: fd8c 89bc 7036 e5bc addd 0abc 0b76 c43c
00000280: 7a8c 253d 1ad9 69bc 9e3b aabc eed6 ad3c
00000290: cabf ffbc 761d bbbc 46f9 303d 0258 bcbb
000002a0: cc2c 8c3d a7b8 903d d9f6 cd3c 10a9 223d
000002b0: 0cbd 0f3d 8111 b83c 710a 893c f531 b83c
000002c0: 3adb 353d 7b6d 9a3d 9736 b63b 20c7 3ebb
000002d0: a865 a939 66a0 aabc 8705 cf3b 3de9 6a3d
000002e0: 82c3 543d 2433 b63c 6ab1 20bd 0d8b 16bd
000002f0: b9c9 bbbc 7ee2 243c 5465 c83c fdc7 31bd
00000300: 2894 103d d170 ffbc 7757 eebc b433 15bd
00000310: 9b66 723d a49d 58bd 89e6 7a3d 494e 843c
00000320: e4a2 393c fd0d 5d3d 0235 543c 1c8a 663d
00000330: 64e0 743d f0cf 07bd 329f 2a3d 6ce0 cf3c
00000340: 4543 e93c f12f cc3c 3b3c ea3c b64c 5cbc
00000350: 6c7b 063c 34d1 903d 1c58 643d 7b9b 623c
00000360: e023 5cbd 8bba b73b 2ec0 1abd bb95 513d
00000370: 3c25 05bd 4965 f4ba aebe 33bc e5a7 583c
00000380: 0795 733d ec93 c43c 3315 4a3d 2495 613d
00000390: 767e 843d 4a0d adbb 8439 5abb 8ec2 253d
000003a0: a74e d6bb 4900 093d 1a08 ac3a 1602 b3bc
000003b0: 7e00 363d 9a49 e23c d3fc 3f3d 2bbb a33d
000003c0: 8ecb 723d 0b9b 9b3d 7844 c63c 9595 60bd
000003d0: 12aa 02bd 82ba 89bc e842 58bd c083 89bc
000003e0: f7e0 11bd 65a4 3bbd 9c45 9abc 5826 1dbd
000003f0: 708d b3bc 99b2 1e3d 5d78 893d e8d9 c6bb

encoder.3.bias f4 [64]
-0.04509279 -0.0023993843 0.044851203 -0.023217913 -0.027475962 0.002393351 -0.022299422 0.02384713
-0.03964906 0.020056557 0.05914513 0.01789451 0.054853648 -0.05677952 -0.020188844 -0.00879302
0.06578557 -0.060847353 0.0035893174 -0.06061723 0.030743152 -0.03698275 -0.030210484 -0.039822
-0.011461785 0.033753768 0.02753734 -0.04733765 0.07307139 0.0057951347 0.035208806 -0.018858287
-0.012424362 -0.03620196 -0.03337301 -0.018478248 0.042696286 -0.022425452 -0.035081632 0.024447203
-0.001478183 -0.02331595 0.06362996 -0.053880922 -0.04233142 0.028152226 0.05015019 -0.008974662
0.061697934 -0.034961384 -0.0130125815 0.007425 -0.007621417 0.03166418 -0.053851172 0.06050471
0.02699044 -0.022259077 -0.013601722 0.005159535 0.0075728456 -0.03849906 0.05275541 0.0407142
00000000: 38b3 38bd fd3e 1dbb e5b5 373d 7e33 bebc
00000010: 4515 e1bc c4d9 1c3b 47ad b6bc 0e5b c33c
00000020: 0e67 22bd a64d a43c 2a42 723d 8297 923c
00000030: 38ae 603d a491 68bd 1363 a5bc 9910 10bc
00000040: 96ba 863d 133b 79bd c13a 6b3b c649 78bd
00000050: 10d9 fb3c 397b 17bd fa7b f7bc 651c 23bd
00000060: 36ca 3bbc 6441 0a3d fd95 e13c 20e5 41bd
00000070: 74a6 953d 1de5 bd3b 1c37 103d b27c 9abc
00000080: 8d8f 4bbc 8248 14bd 23b2 08bd b25f 97bc
00000090: 4de2 2e3d 95b5 b7bc c2b1 0fbd 8045 c83c
000000a0: 97bf c1ba 1701 bfbc 6d50 823d 3eb2 5cbd
000000b0: b663 2dbd 7f9f e63c 496a 4d3d 760a 13bc
000000c0: f9b6 7c3d ab33 0fbd b932 55bc 6a4d f33b
000000d0: 14bd f9bb 4db2 013d 0c93 5cbd c9d3 773d
000000e0: 0e1b dd3c ab58 b6bc c2d9 5ebc 5111 a93b
000000f0: a225 f83b 31b1 1dbd 0f16 583d efc3 263d

decoder.0.weight f4 [32, 64, 3, 3]
0.010744372 -0.0019451056 -0.053121544 -0.045533437 -0.041939173 -0.013721042 -0.0028401911 -0.02729819
-0.066948384 -0.014254935 -0.011460011 -0.021243235 0.034366827 0.011146548 -0.022050614 -0.016475286
-0.02241948 -0.022387419 0.027558174 -0.01386108 -0.028824147 0.016307134 0.007256565 -0.026414992
0.021149764 0.012148083 0.012517242 0.02401743 -0.012727505 -0.028807484 0.035465535 0.050202865
0.048693087 0.02996078 0.049567703 0.020902652 -0.041506372 0.0004330595 -0.037324894 -0.047026463
0.001303931 -0.030040208 -0.039232764 0.026103167 0.005848655 0.017804122 -0.012436043 0.01558134
-0.0006558498 -0.00973165 -0.007950097 0.0309222 -0.02848967 -0.012846078 0.03174585 -0.0041331225
0.020456089 -0.0189783 0.025141103 -0.029618606 -0.0223421 -0.036651984 -0.03328046 0.039714605
0.03698013 0.031311784 0.034868114 0.03911369 0.034946304 0.035160307 -0.011422968 0.039155018
0.03664711 0.01899932 -0.0054161376 0.04724041 0.00488699 -0.035265066 -0.00660477 0.0053196787
0.023013022 0.014945913 0.01654921 0.038183775 0.043856464 -0.001122843 -0.0013856853 -0.007204773
0.013481133 -0.03487985 -0.024547175 0.013058786 -0.05378084 -0.008757889 -0.011447478 -0.027880516
-0.029000191 -0.03800507 -0.050761364 -0.026196785 0.033208903 0.008271467 0.01087107 0.0064059924
-0.028348627 0.004506243 -0.02652315 0.030438675 -0.00048768334 -0.003965885 0.023983203 -0.014161517
-0.016605841 -0.013463112 0.0014413962 -0.017547727 -0.033357415 0.020976495 0.016927876 -0.021312997
-0.029385947 0.022507293 -0.0294492 -0.03126979 -0.043293532 0.006849397 -0.0070658564 0.026744828
-0.025723932 -0.04524813 0.021291481 0.014405678 -0.053106844 -0.05442258 0.003402707 -0.009945162
0.0152675845 0.0052835313 -0.0014114096 0.04422525 0.022332752 0.020138023 -0.024517525 -0.007870579
0.033261325 0.033618703 0.0136458585 -0.026084341 -0.010780652 0.050941523 0.045941245 0.031726062
-0.016013365 -0.019471943 0.010410504 -0.03734083 0.003032944 0.0120227095 0.02074613 0.023223089
-0.0016775107 0.02591682 -0.052981805 -0.03508371 -0.021491496 0.010658141 -0.047816887 0.020713706
-0.03719445 -0.024580408 0.023726547 0.040901832 0.011804656 -0.008716102 0.02947714 -0.0020171008
0.025109798 0.016875451 -0.0009085288 0.039319884 0.031409174 0.048913892 0.048032627 0.020446623
-0.008658144 -0.0045386744 0.0038241195 -0.0046189665 0.01221599 0.053479888 0.037040073 0.0195039
0.03558027 -0.01307996 0.02552092 0.04703111 0.02235169 0.008107466 0.044736132 -0.025875011
0.03317853 0.0030084676 -0.02982179 0.03534349 -0.0009802576 -0.0024601398 -0.010196582 -0.013758108
-0.006406854 -0.0409135 0.020263027 0.0053964807 0.015473446 0.041460335 -0.009274968 -0.025006201
-0.039982438 -0.021256588 -0.018714666 0.0005830516 -0.013642491 0.0019440161 -0.033753227 -0.047888044
-0.0066717356 0.0091603175 -0.019701235 -0.014882196 -0.00730749 -0.037226632 0.03892031 0.030019071
-0.03040347 -0.039696086 0.0061372113 0.010191236 -0.05128511 -0.021689523 -0.043650314 -0.038158458
-0.059428968 -0.016593706 0.028303806 0.025590347 -0.03515425 0.024397938 0.04555069 0.035871673
0.042314827 -0.01730563 -0.015087327 0.026763538 -0.019032681 -0.0015683356 0.039062794 0.027150203
00000000: 2a09 303c eaf2 feba fa95 59bd 4581 3abd
00000010: 69c8 2bbd 39ce 60bc 8022 3abb 74a0 dfbc
00000020: 3c1c 89bd 888d 69bc c5c2 3bbc 4b06 aebc
00000030: 3bc4 0c3d 03a0 363c 7da3 b4bc 2ef7 86bc
00000040: 0fa9 b7bc d265 b7bc aec1 e13c 9519 63bc
00000050: 9e20 ecbc 8a96 853c 7bc8 ed3b 4164 d8bc
00000060: 4542 ad3c c108 473c 1e15 4d3c 34c0 c43c
00000070: 0687 50bc acfd ebbc 4f44 113d 85a1 4d3d
00000080: 6772 473d 4f70 f53c 8107 4b3d 0a3c ab3c
00000090: 9602 2abd 430c e339 fde1 18bd d29e 40bd
000000a0: aae8 aa3a e216 f6bc 89b2 20bd 4fd6 d53c
000000b0: 13a6 bf3b f3d9 913c 8bc0 4bbc e048 7f3c
000000c0: 56ed 2bba 8071 1fbc 2041 02bc 8e50 fd3c
000000d0: 2b63 e9bc 5b78 52bc f007 023d 256f 87bb
000000e0: 8793 a73c 6178 9bbc b7f4 cd3c b8a2 f2bc
000000f0: c806 b7bc 6420 16bd 1751 08bd c8ab 223d
00000100: 7a78 173d c940 003d ded1 0e3d ad35 203d
00000110: db23 0f3d 4104 103d 6627 3bbc 0361 203d
00000120: 481b 163d 76a4 9b3c db79 b1bb 297f 413d
00000130: 0b23 a03b 1a72 10bd d46c d8bb b350 ae3b
00000140: ce85 bc3c b4df 743c 3592 873c 9766 1c3d
00000150: d6a2 333d 5c2c 93ba e29f b5ba 0416 ecbb
00000160: f8df 5c3c 2cde 0ebd 2817 c9bc 85f4 553c
00000170: 4c49 5cbd 407d 0fbc 348e 3bbc ae65 e4bc
00000180: cf91 edbc 34ab 1bbd 26eb 4fbd a49a d6bc
00000190: 0f06 083d 0c85 073c 931c 323c 5ce9 d13b
000001a0: 613b e8bc 1ba9 933b 1447 d9bc 875a f93c
000001b0: c0af ffb9 41f4 81bb 6c78 c43c b505 68bc
000001c0: f908 88bc 6294 5cbc 3bed bc3a 40c0 8fbc
000001d0: c9a1 08bd e6d6 ab3c 54ac 8a3c 9898 aebc
000001e0: ccba f0bc 3761 b83c 733f f1bc c014 00bd
000001f0: 8f54 31bd e870 e03b b388 e7bb f817 db3c
00000200: ffba d2bc 1a56 39bd 796b ae3c cb05 6c3c
00000210: 9086 59bd 36ea 5ebd f3ff 5e3b 08f1 22bc
00000220: e424 7a3c 7921 ad3b 0cff b8ba 8925 353d
00000230: 2df3 b63c 7ff8 a43c fad8 c8bc 9af3 00bc
00000240: 073d 083d c4b3 093d e192 5f3c d4ae d5bc
00000250: 55a1 30bc 0fa8 503d e32c 3c3d 30f3 013d
00000260: 762e 83bc a083 9fbc d290 2a3c b3f2 18bd
00000270: 5bc4 463b e6fa 443c caf3 a93c 593e be3c
00000280: ebdf dbba 834f d43c 7303 59bd f0b3 0fbd
00000290: ef0e b0bc 7c9f 2e3c a4db 43bd caaf a93c
000002a0: 3559 18bd da5c c9bc 2d5e c23c ae88 273d
000002b0: 5168 413c fbcd 0ebc 0b7a f13c 5631 04bb
000002c0: 10b3 cd3c 633e 8a3c 562a 6eba e30d 213d
000002d0: e8a6 003d ef59 483d dcbd 443d ad7f a73c
000002e0: e3da 0dbc 29b9 94bb 149e 7a3b b35a 97bb
000002f0: 9325 483c ba0d 5b3d 55b7 173d a5c6 9f3c
00000300: 9ebc 113d 544d 56bc 4011 d13c b1a3 403d
00000310: e41a b73c 2dd5 043c 3c3d 373d d5f7 d3bc
00000320: 36e6 073d b629 453b d44c f4bc 56c4 103d
00000330: fd7b 80ba 4c3a 21bb 910f 27bc b069 61bc
00000340: 96f0 d1bb ea94 27bd a6fe a53c f6d4 b03b
00000350: 5684 7d3c 50d2 293d 09f6 17bc ced9 ccbc
00000360: a0c4 23bd 4c22 aebc 804f 99bc eed7 183a
00000370: c184 5fbc 5bce fe3a d340 0abd 4126 44bd
00000380: 939e dabb 2815 163c 7c64 a1bc 74d4 73bc
00000390: ab73 efbb f47a 18bd e76a 1f3d 8eea f53c
000003a0: b310 f9bc 5d98 22bd a91a c93b 24f9 263c
000003b0: 5610 52bd 3aae b1bc acca 32bd 0b4c 1cbd
000003c0: ca6b 73bd 86ef 87bc 62dd e73c d9a2 d13c
000003d0: e7fd 0fbd 2fde c73c 5c93 3a3d 2dee 123d
000003e0: 5052 2d3d 89c4 8dbc d630 77bc 353f db3c
000003f0: 6dea 9bbc 9c90 cdba 4f00 203d 1a6a de3c

decoder.0.bias f4 [32]
0.022512412 -0.0065709916 0.00030457226 -0.012071748 -0.015069912 0.061372932 -0.0062459377 -0.032134034
0.012583232 -0.031379562 0.05906059 0.03659417 -0.006127549 -0.0026352827 0.031064386 0.023222007
0.030456897 0.0058188983 0.017713059 0.038440093 -0.011884196 -0.0011760457 -0.03518541 0.002468453
0.027065445 -0.017783927 -0.037537728 0.02267743 0.039631065 -0.01082256 -0.021776667 0.059031304
00000000: f36b b83c 7951 d7bb ffae 9f39 95c8 45bc
00000010: cbe7 76bc 2f62 7b3d b9aa ccbb fa9e 03bd
00000020: e629 4e3c db87 00bd 84e9 713d c5e3 153d
00000030: 9bc9 c8bb b5b4 2cbb bd7a fe3c 143c be3c
00000040: be80 f93c 75ac be3b fa1a 913c 5c73 1d3d
00000050: eeb5 42bc 8c25 9aba 941e 10bd c5c5 213b
00000060: 5ab8 dd3c 99af 91bc 29c1 19bd 05c6 b93c
00000070: 2f54 223d 1b51 31bc fb64 b2bc cfca 713d

decoder.3.weight f4 [32, 32, 3, 3]
0.036961768 -0.011708511 0.02990993 0.056014825 0.06433451 -0.01999401 0.027901715 0.063332774
0.05073498 0.053462796 0.01929788 0.03224587 -0.01980369 -0.0025138059 0.075466804 0.012453287
0.015972687 0.06044334 -0.041759152 0.018555969 0.06891384 0.051006403 0.037784502 0.06633918
0.052345295 -0.009920071 0.054976035 -0.03146059 -0.010635087 -0.06581705 0.009056173 0.026377903
0.02846938 0.009291887 -0.027889358 -0.0010173359 -0.03484349 0.010489405 -0.062005907 0.016738983
-0.062908925 0.02485371 -0.009555968 -0.029065385 0.022373872 -0.01796987 -0.0106661795 0.026843982
0.00733354 -0.040888123 -0.010896966 0.07149929 0.013580192 0.0288141 -0.02306752 0.033470437
0.0051103737 0.03146606 -0.024948878 -0.031047963 -0.05031361 0.0034040636 0.018068904 0.05861571
0.030217411 -0.021926511 -0.033147287 0.009861673 0.004630389 -0.0114760185 0.015721899 0.05984124
-0.014229127 -0.01775334 0.0024911372 0.017630339 -0.045169115 -0.047107276 -0.021393342 -0.029910147
-0.030065574 -0.023909992 0.019536592 -0.03078339 -0.04332725 -0.0048192944 -0.014774358 -0.0040541855
0.04698892 -0.018007986 0.046869475 0.029660255 0.008207064 0.05176689 -0.009236046 -0.024615292
0.044807866 0.04800415 0.0031332679 -0.031181639 0.06727701 0.00038469525 0.059033826 -0.041532278
-0.008218452 0.028618028 0.0730762 -0.005352977 0.024395378 -0.027107395 0.026106283 -0.060711402
0.00804788 -0.0074006985 0.011492313 -0.06544604 -0.018905167 0.06443274 -0.009237741 0.0594208
-0.03118428 -0.011278228 0.05490473 0.0425624 0.06853375 -0.020195711 0.039692514 -0.024271384
0.021223165 -0.041481078 0.041010566 -0.042452894 0.060330153 0.062865555 -0.034370434 -0.046004564
-0.0059544537 -0.038801186 0.04295418 0.03077918 -0.05408187 -0.021802532 -0.058850035 -0.029392147
0.02951617 0.07086284 0.029448075 0.056226417 0.05215242 0.04459909 0.02393765 0.03985969
-0.03673794 -0.04669871 -0.02580514 -0.01015993 -0.0107443435 -0.013390326 0.06425117 0.0044245548
-0.038859066 0.028927447 0.007145301 0.024471497 -0.01200213 0.02660061 0.0039222282 -0.04593392
0.019724937 -0.007467051 0.029139103 -0.06151252 0.02784348 -0.020480724 -0.060907554 -0.051600073
-0.06778576 0.00712195 0.03621494 0.013802638 0.054679193 -0.0068450836 0.01706796 -0.0038017319
0.026857082 0.045430828 0.012869487 0.031666193 -0.05923596 -0.031524904 -0.00055606465 -0.054828055
-0.043105148 -0.00425971 0.042802013 -0.062117968 -0.00041379815 0.044658646 -0.020288378 -0.020811252
0.067327574 -0.010782298 -0.0041959356 0.0032458454 0.0380149 0.030289982 0.055730756 -0.020256564
0.018909782 0.05338518 -0.00035052272 0.000609986 -0.04351152 0.071257435 -0.014510202 0.016535496
-0.024968216 -0.023641981 0.059209496 -0.03609561 0.06935816 -0.04381211 0.03811367 0.04897884
0.015268117 0.04509186 -0.024595324 0.014963117 0.018693384 0.009081423 0.025005868 0.045137744
-0.019471392 0.020740436 -0.009471653 -0.006194271 -0.03415722 -0.03898389 0.043589696 -0.03861187
0.0011965889 0.05847531 0.049313508 -0.039723787 -0.0045530675 0.040693566 0.07324566 0.012344251
-0.0022372636 -0.03137376 0.034700185 0.009730611 -0.016506141 -0.042598367 0.019547887 0.068572044
00000000: 3965 173d 0ed5 3fbc ab05 f53c cd6f 653d
00000010: d0c1 833d 7aca a3bc 2392 e43c 9db4 813d
00000020: 7bcf 4f3d cefb 5a3d 9616 9e3c 3f14 043d
00000030: 593b a2bc aabe 24bb 578e 9a3d df08 4c3c
00000040: 27d9 823c 7093 773d a50b 2bbd b002 983c
00000050: b322 8d3d 17ec 503d ecc3 1a3d d6dc 873d
00000060: 0568 563d cb87 22bc 8d2e 613d d2dc 00bd
00000070: ca3e 2ebc 17cb 86bd 5860 143c 7916 d83c
00000080: 9e38 e93c 003d 183c 3978 e4bc 2158 85ba
00000090: 0cb8 0ebd c1db 2b3c e8f9 7dbd 3120 893c
000000a0: 65d6 80bd 029a cb3c a390 1cbc 881a eebc
000000b0: 6949 b73c 8c35 93bc 33c1 2ebc e9e7 db3c
000000c0: 314e f03b 4e7a 27bd 3089 32bc 386e 923d
000000d0: 747f 5e3c 8c0b ec3c 18f8 bcbc 4c18 093d
000000e0: ec74 a73b 8ee2 003d 9761 ccbc 4c58 febc
000000f0: a515 4ebd b616 5f3b 3d05 943c 0717 703d
00000100: 818a f73c 3a9f b3bc 73c5 07bd db92 213c
00000110: 85ba 973b e905 3cbc 36cb 803c 171c 753d
00000120: 4921 69bc 746f 91bc 5942 233b 806d 903c
00000130: 4003 39bd 8ff3 40bd 1741 afbc 2006 f5bc
00000140: 144c f6bc e3de c3bc 340b a03c 732d fcbc
00000150: ea77 31bd 2ceb 9dbb 2610 72bc f9d8 84bb
00000160: 7477 403d 7c85 93bc 35fa 3f3d 10fa f23c
00000170: ec76 063c 8509 543d c952 17bc 02a6 c9bc
00000180: 7488 373d 00a0 443d 8357 4d3b a370 ffbc
00000190: 87c8 893d ecb0 c939 74cd 713d c01d 2abd
000001a0: b0a6 06bc 5b70 ea3c faa8 953d 0768 afbb
000001b0: d1d8 c73c 5410 debc d8dc d53c 85ac 78bd
000001c0: 41db 033c 8f81 f2bb 414a 3c3c 9308 86bd
000001d0: 02df 9abc 50f5 833d e559 17bc 3a63 733d
000001e0: 2d76 ffbc 51c8 38bc c8e3 603d e955 2e3d
000001f0: 6c5b 8c3d 7a71 a5bc 9e94 223d c8d4 c6bc
00000200: 34dc ad3c 10e8 29bd b2fa 273d 16e3 2dbd
00000210: c01c 773d a8bf 803d 03c8 0cbd 486f 3cbd
00000220: 941d c3bb feed 1ebd b9f0 2f3d 9e24 fc3c
00000230: f384 5dbd 399b b2bc bc0c 71bd cdc7 f0bc
00000240: e5cb f13c 8920 913d 173d f13c ac4d 663d
00000250: c79d 553d 89ad 363d e418 c43c ea43 233d
00000260: 867a 16bd 2647 3fbd 4d65 d3bc d675 26bc
00000270: 0b09 30bc 1963 5bbc 1e96 833d dbfb 903b
00000280: af2a 1fbd 41f9 ec3c 2123 ea3b 7378 c83c
00000290: 95a4 44bc 86e9 d93c 0986 803b 3525 3cbd
000002a0: 3196 a13c 2aae f4bb 21b5 ee3c 8df4 7bbd
000002b0: 0318 e43c 31c7 a7bc 337a 79bd 995a 53bd
000002c0: 43d3 8abd 3f5f e93b 1e56 143d 7624 623c
000002d0: 4af7 5f3d b94c e0bb 1bd2 8b3c 7a26 79bb
000002e0: 6203 dc3c ad15 3a3d 8ada 523c 69b4 013d
000002f0: 68a1 72bd 4220 01bd dec4 11ba 6293 60bd
00000300: 068f 30bd 0a95 8bbb 2a51 2f3d 696f 7ebd
00000310: 0cf3 d8b9 fceb 363d d033 a6bc 5c7c aabc
00000320: 0ae3 893d 3ca8 30bc 0f7e 89bb 40b8 543b
00000330: 83b5 1b3d b222 f83c ef45 643d 18f1 a5bc
00000340: b0e8 9a3c 6baa 5a3d 5dc6 b7b9 78e7 1f3a
00000350: 2339 32bd 6bef 913d 33bc 6dbc 7375 873c
00000360: 258a ccbc d4ac c1bc a885 723d fed8 13bd
00000370: a70b 8e3d 5474 33bd 141d 1c3d 099e 483d
00000380: 2027 7a3c 3eb2 383d 227c c9bc dd27 753c
00000390: de22 993c 40ca 143c 1bd9 cc3c 5be2 383d
000003a0: 7882 9fbc d9e7 a93c fe2e 1bbc 50f9 cabb
000003b0: 71e8 0bbd 92ad 1fbd 1c8b 323d 7b27 1ebd
000003c0: dcd6 9c3a cf83 6f3d f6fc 493d 69b5 22bd
000003d0: e631 95bb 4cae 263d d201 963d 8b3f 4a3c
000003e0: 0e9f 12bb c681 00bd c821 0e3d 246d 1f3c
000003f0: e337 87bc a07b 2ebd e422 a03c 806f 8c3d

decoder.3.bias f4 [32]
0.03096661 0.036030266 0.029895386 -0.009469072 0.033081286 -0.021972938 0.059956748 -0.04594509
-0.02712597 0.07862556 0.044164725 -0.016060287 0.032841388 -0.013284931 -0.024651902 -0.026302787
0.015287485 0.049163952 0.019557584 0.038452704 0.020552507 0.037907712 0.045091186 -0.026512913
-0.02758855 -0.070754275 0.02581206 -0.060081076 -0.015761346 -0.027839717 -0.025201103 -0.010918788
00000000: b0ad fd3c 7994 133d 2be7 f43c 2b24 1bbc
00000010: 3e80 073d 9700 b4bc 3595 753d eb30 3cbd
00000020: 4837 debc 7006 a13d 12e6 343d dd90 83bc
00000030: b184 063d 0aa9 59bc c9f2 c9bc f178 d7bc
00000040: 5c78 7a3c 2460 493d 3a37 a03c 9580 1d3d
00000050: bb5d a83c 1e45 1b3d 89b1 383d 9c31 d9bc
00000060: 6201 e2bc 9ee7 90bd d073 d33c 9317 76bd
00000070: f01d 81bc 1e10 e4bc 8b72 cebc b7e4 32bc

decoder.6.weight f4 [1, 32, 3, 3]
0.012971897 -0.03393488 -0.046357226 0.024254518 -0.026576487 -0.01111379 -0.04070719 -0.0342203
-0.020940948 -0.004961858 -0.007148638 -0.04182221 0.028345168 -0.048916407 0.036736477 0.031876773
-0.044571117 0.0151060205 -0.056944337 -0.011422259 0.021775298 -0.0666058 -0.0045335563 -0.04129289
-0.067538805 -0.035273675 0.04095997 -0.042551577 0.0016582009 0.015524706 -0.007324566 -0.022366747
0.048495386 0.019971894 -0.04741202 0.059152883 -0.046339866 -0.041843113 -0.00688971 -0.059018347
0.01852708 0.010307596 -0.005622053 -0.0136021115 -0.011645067 -0.039608594 0.009564464 -0.0016444158
0.032672286 0.031904206 -0.0468271 0.034594744 -0.061784185 0.006880032 -0.0009028908 -0.044061188
-0.058454607 -0.035281282 -0.074312575 -0.06320833 0.0047663385 -0.07356653 -0.033441365 -0.016291948
0.02927151 0.039448656 0.028719332 0.055374015 0.037696864 0.037589204 -0.019462854 0.027679397
0.03785985 0.008009713 -0.0011945219 0.018497529 -0.04923064 -0.064447016 -0.07316026 -0.030649444
-0.054679465 -0.043639384 -0.07153358 -0.056106396 0.032593794 0.01956786 -0.051385466 0.013852451
0.023828931 -0.05161745 0.010050044 -0.063157305 -0.039217975 -0.042850778 -0.0013542183 0.038656503
-0.00012443028 0.039821368 0.04081614 -0.0357949 0.050569944 -0.016727528 0.040830668 0.015008252
0.053497463 0.0247961 0.038970474 -0.04305673 -0.045711942 0.008051437 0.04291872 0.017728982
0.041646656 -0.020702349 0.04764798 -0.060340006 -0.04330195 0.030145014 0.01519277 0.06295425
-0.027958466 -0.021158736 0.047235 0.05527985 -0.010000109 0.04255848 0.047158357 -0.05972839
-0.008951229 -0.036663387 -0.06579902 0.019856188 -0.019961813 -0.06835009 0.010455113 0.04241618
-0.0025990412 0.0014930813 0.01793209 -0.038325455 -0.03901045 0.058239974 0.022269461 0.04640635
-0.005868355 -0.06443943 -0.06495388 -0.05984983 -0.06598343 -0.066518925 -0.07387846 0.013041247
-0.0664995 -0.0067073265 0.031443376 -0.015205246 -0.014662876 -0.06220108 0.005094735 -0.036349192
-0.044311836 -0.06267324 0.05348408 0.052017134 0.03261255 0.02046815 0.02489747 -0.030019257
0.044614036 0.01571662 -0.015544374 -0.028410979 -0.031110696 -0.04273407 -0.013257066 -0.008367314
-0.04626329 0.012260712 -0.03287495 -0.014003714 -0.01679018 0.01551539 -0.030097956 0.038221598
0.040999245 -0.033014346 -0.016589783 -0.041244347 0.011341399 -0.0025837913 -0.043358844 0.04745693
-0.048648525 0.038029164 0.042258065 0.01945764 -0.061109066 0.04260369 0.015521711 -0.06731391
-0.076709315 0.033823755 -0.065767884 -0.0593776 -0.0026906964 -0.07426461 0.0024559225 0.04058154
-0.029886937 0.023623424 0.008205084 -0.056262378 -0.0009210247 -0.00545457 -0.027127253 -0.05693695
0.058700062 0.037285965 0.0580129 -0.04848741 0.028610844 -0.036126863 -0.022767434 -0.030976705
0.02104316 -0.023431957 -0.012953727 -0.025423622 0.039470486 0.031190777 -0.04077293 -0.011573032
-0.01981547 0.02406894 -0.07234652 -0.058672138 0.033059325 -0.07495518 8.28041e-05 -0.009129759
-0.0004982997 -0.022362964 0.030897258 0.039580457 0.0600324 0.0007127209 0.046506215 -0.0067153145
0.04291725 -0.0214638 0.061069973 0.03810744 -0.07319306 0.03433637 -0.0004090356 -0.03149297
00000000: 1488 543c 4dff 0abd 13e1 3dbd 69b1 c63c
00000010: efb6 d9bc 9d16 36bc 95bc 26bd 962a 0cbd
00000020: 5a8c abbc 1597 a2bb 1f3f eabb c44d 2bbd
00000030: 2034 e83c 925c 48bd fd78 163d 3891 023d
00000040: 3490 36bd 3e7f 773c 773e 69bd 6d24 3bbc
00000050: 1c62 b23c 9f68 88bd 3a8e 94bb bc22 29bd
00000060: c951 8abd 217b 10bd a4c5 273d 904a 2ebd
00000070: fd57 d93a 565b 7e3c ea02 f0bb 783a b7bc
00000080: 19a3 463d 199c a33c 1b33 42bd 4b4a 723d
00000090: dfce 3dbd af63 2bbd 14c3 e1bb 39bd 71bd
000000a0: 1ac6 973c 31e1 283c 3339 b8bb 64db 5ebc
000000b0: f3ca 3ebc 9f3c 22bd 45b4 1c3c 7089 d7ba
000000c0: 60d3 053d fcad 023d c6cd 3fbd 38b3 0d3d
000000d0: 6a11 7dbd e471 e13b faaf 6cba 8179 34bd
000000e0: 196e 6fbd 1b83 10bd 3131 98bd 5e73 81bd
000000f0: f22e 9c3b 0daa 96bd d0f9 08bd b176 85bc
00000100: ceca ef3c ea94 213d ce44 eb3c ddcf 623d
00000110: 0768 1a3d 23f7 193d 9070 9fbc e7bf e23c
00000120: ee12 1b3d 2c3b 033c 8191 9cba 2188 973c
00000130: 11a6 49bd ccfc 83bd 0cd5 95bd 8b14 fbbc
00000140: 93f7 5fbd 36bf 32bd 3380 92bd d2cf 65bd
00000150: 1281 053d c74c a03c 9179 52bd 64f5 623c
00000160: e434 c33c d26c 53bd f1a8 243c 9e58 81bd
00000170: 07a3 20bd 4c84 2fbd 0780 b1ba 4856 1e3d
00000180: 8079 02b9 bb1b 233d d32e 273d ac9d 12bd
00000190: 6e22 4f3d 2b08 89bc 0f3e 273d 2ce5 753c
000001a0: 2820 5b3d 3121 cb3c 819f 1f3d 415c 30bd
000001b0: 723c 3bbd 2dea 033c 8acb 2f3d 5f3c 913c
000001c0: af95 2a3d f997 a9bc 872a 433d 1527 77bd
000001d0: 635d 31bd adf2 f63c 19eb 783c 28ee 803d
000001e0: 2709 e5bc 1655 adbc 7d79 413d 206d 623d
000001f0: 7fd7 23bc cd51 2e3d 1f29 413d c2a5 74bd
00000200: 2da8 12bc 592c 16bd a3c1 86bd 72a9 a23c
00000210: f586 a3bc 22fb 8bbd ec4b 2b3c 97bc 2d3d
00000220: ad54 2abb 7fb3 c33a 52e6 923c 27fb 1cbd
00000230: 6cc9 1fbd 0a8d 6e3d 726e b63c 9614 3e3d
00000240: 544b c0bb d2f8 83bd 8a06 85bd 1825 75bd
00000250: 5222 87bd 133b 88bd 974d 97bd f4aa 553c
00000260: e430 88bd 22c9 dbbb c5ca 003d 6d1f 79bc
00000270: 8f3c 70bc 8fc6 7ebd bcf1 a63b e4e2 14bd
00000280: 5480 35bd d45a 80bd 1f12 5b3d eb0f 553d
00000290: bd94 053d d2ac a73c c7f5 cb3c f2ea f5bc
000002a0: 35bd 363d 24c0 803c d4ad 7ebc 24be e8bc
000002b0: dcdb febc ec09 2fbd 2a34 59bc 0f17 09bc
000002c0: 937e 3dbd 27e1 483c e2a7 06bd d56f 65bc
000002d0: 8f8b 89bc 4334 7e3c fd8f f6bc 408e 1c3d
000002e0: d3ee 273d 0d3a 07bd 4ce7 87bc d5ef 28bd
000002f0: 46d1 393c d354 29bb 0b99 31bd 3362 423d
00000300: ad43 47bd 78c4 1b3d cb16 2d3d a165 9f3c
00000310: 804d 7abd 3581 2e3d c64e 7e3c e0db 89bd
00000320: c619 9dbd c78a 0a3d 50b1 86bd ed35 73bd
00000330: 6556 30bb 0b18 98bd 8bf3 203b d438 263d
00000340: 73d5 f4bc e985 c13c 9e6e 063c 6173 66bd
00000350: ec70 71ba 40bc b2bb f939 debc b836 69bd
00000360: 7a6f 703d 2bb9 183d ef9e 6d3d bc9a 46bd
00000370: 4a61 ea3c c3f9 13bd c582 babc dcc2 fdbc
00000380: b562 ac3c 60f4 bfbc de3b 54bc 3345 d0bc
00000390: ceab 213d cd83 ff3c 8401 27bd d09c 3dbc
000003a0: 0d54 a2bc 3a2c c53c 6a2a 94bd 3252 70bd
000003b0: 3769 073d 1a82 99bd 1da7 ad38 fc94 15bc
000003c0: 54a0 02ba 8932 b7bc 3f1c fd3c 1e1f 223d
000003d0: 89e4 753d e4d5 3a3a 4d7d 3e3d 240c dcbb
000003e0: 00ca 2f3d dad4 afbc 8224 7a3d 8c16 1c3d
000003f0: 3ee6 95bd 4ba4 0c3d d473 d6b9 c6fe 00bd
